models/som_weights.npy (npy, 41528 bytes, 1 tensors)

array f8 [15, 15, 23]
0.8874357837601471 -0.8130592008245969 0.7993513277837284 0.8003366927972674 0.22916044714264575 -0.004366464495590138 -0.024947889873111157 -0.7014599214565783
-0.7358746099213503 -0.43387805248020717 -0.45380687965198596 -0.20035547087404917 0.03817654226107951 0.0381814251309957 0.03817940212708801 0.7878591359699526
-0.8787864132417612 1.0 0.0 0.0 0.9827653998940195 0.004886107976031029 0.012348492129949507 0.878794989916573
-0.8130592008246011 0.790573695890139 0.7915574819982795 0.08456307025237575 -0.004366463916902946 -0.02500155990212296 -0.7737639363096706 -0.8115769443196093
-0.4888004202776052 -0.51033764937577 -0.18844522188756105 0.037552875879958605 0.03755513949789561 0.037554232328239456 0.7790032898512105 -0.8769478728019697
1.0 0.0 0.0 0.9924944905681686 0.0032981989682865707 0.004207310463544785 0.8214940175498252 -0.77581805109876
0.734413120972395 0.7353890386758698 -0.14142612970788684 0.04161600415510496 -0.024281868812302102 -0.7965147315995837 -0.8348531888809835 -0.36574181539882067
-0.38328263424607395 -0.08016655195960974 0.037929837999042426 0.037935758920460076 0.037933292930889206 0.7219547984789751 -0.8370397672568379 0.9819380375190411
0.0 0.018061962480959006 0.9549483258097806 0.004961056373615236 0.040090617816604134 0.666797192382712 -0.6443832878672884 0.5806406875897676
0.5815971571795359 -0.18677614337714757 -0.0043664462230498255 -0.021718198131880317 -0.9149655049534346 -0.9575759766850599 -0.28776137122461043 -0.3028530990052377
-0.1190613580902685 0.0388907650496878 0.03890182119554056 0.03889716713152557 0.5679267114185977 -0.6577373406922092 0.9171032623463764 0.0
0.08289673765362375 0.8716058377081036 0.09020397691042593 0.038190185381470565 0.33001215143002355 -0.24972642474291032 0.24373073808812787 0.24464959541421538
-0.02472969502759514 -0.004366426319456151 -0.022609235378368696 -0.40928550256445684 -0.43083772941768167 0.018588096533083687 0.012988293848874378 0.14974449801611228
0.04232046038317207 0.04232945042806892 0.04232568260517095 0.23311951523406046 -0.3811439807653648 0.7267835295337278 0.0 0.27321647046627234
0.6967989555917934 0.00793374875460732 0.29526729565359916 0.9624070162441557 -0.8130592184734904 0.881605914355135 0.8826027073378644 0.1822609202252314
-0.0043664228250183 -0.023381597721381094 -0.04069447452901638 -0.04573962678859988 0.22721949980065276 0.22836732964818313 0.16581903288146627 0.04475609197310556
0.044772027443511435 0.04476530198950885 0.8651244292100035 -0.9107549187085171 1.0 0.0 0.0 0.46896778011774526
0.005462841943744703 0.52556937793851 -0.5394684366508606 0.47296705506029746 -0.582588260812228 -0.581769856777157 0.15136653432179328 -0.0043664396592012125
-0.024526157336349226 -0.8812592283860494 -0.921350136107701 -1.1923804586568185 -1.2368793854931976 -1.6183303397886173 0.036996274296611044 0.03701645096630829
0.03700790516522263 -0.6365634896104504 0.4552344347319054 0.36797499654648963 0.0 0.6320250034535101 0.9972793103393838 0.002442430623466742
0.0002782590371497187 1.0628581521780713 -0.813060064064593 0.9869338473787093 0.98794963761329 0.2982363985909106 -0.004366455178776119 -0.025190966302110613
0.08572680426736483 0.07836463238703471 0.3872761362623271 0.3936643656899707 0.2584750031910052 0.044485858580556786 0.04444114498200713 0.044460278677190164
0.9652858715267875 -0.9459923373530144 1.0 0.0 0.0 0.3694290014239606 0.6305373950175389 3.360355850078839e-05
1.041449752007579 -0.8130622005884944 0.9645849044654929 0.9655953829233056 0.37993939073248695 -0.0043664625391815984 -0.025439814166285126 0.5777931707003915
0.5963936406088568 0.19358090709219702 0.19328293063466656 0.18786266446918287 0.0483539127196684 0.04834977673274741 0.04835161490823818 0.9453531177583481
-0.9357397821362143 1.0 0.0 0.0 0.35657491028213945 0.000271928525195769 0.6431531611926642 0.07207421771494607
-0.8130656906177512 0.29210380834988153 0.28565620332751146 -1.1527165980458827 -0.004366465196310071 -0.025517243701115886 -0.24550418994369577 -0.25915030139387607
-0.6325383274647088 -0.4708897343258165 -0.8658222572152446 0.041497876245555156 0.04151435212872312 0.0415073912217637 0.3474325498856028 -0.42896643664506057
0.3042368128251661 0.6957631871748337 0.0 0.9996954883641335 7.860052961804877e-05 0.00022591110624853043 0.13211357433573712 -0.8130676325870377
0.3515120026345654 0.34691537462106053 -1.215709414717297 -0.004366465941054324 -0.02553738093913408 -0.1858521149898192 0.2591121052671272 -1.4556506461065355
-0.040167397060952986 -0.8744913766070755 0.04196678346397996 0.04558962558226328 0.04404498198403807 0.3836637950000671 -0.5664420348479283 0.22764513683528972
0.7723548631647105 0.0 0.2269973122419661 0.7723745944785332 0.0006280932795009547 0.04826222224684855 -0.8130658530333442 0.305484378396792
00000000: 4599 91ba df65 ec3f 001d a8ba 9404 eabf
00000010: 9d0c 5b3c 4994 e93f 494c 2bb2 5b9c e93f
00000020: ddd7 0129 2155 cd3f 3fc2 52e3 91e2 71bf
00000030: e5d7 6f8c f08b 99bf 1f8b c313 5c72 e6bf
00000040: e534 f2e8 488c e7bf c6b2 7673 a8c4 dbbf
00000050: 8e86 b302 2c0b ddbf c146 7d81 3fa5 c9bf
00000060: 76ad f830 e08b a33f 572d 8108 848c a33f
00000070: bc89 0827 408c a33f 7f10 db5c 2436 e93f
00000080: 355c 21af 041f ecbf 0000 0000 0000 f03f
00000090: 0000 0000 0000 0000 0000 0000 0000 0000
000000a0: f5ec 856c d072 ef3f 5a71 639f 7403 743f
000000b0: 0d0a d38e 2a4a 893f 1292 b2ab 161f ec3f
000000c0: 261d a8ba 9404 eabf c4a1 1d35 614c e93f
000000d0: 67c6 425b 7054 e93f 08ed 2ee5 eca5 b53f
000000e0: d362 8ebb 91e2 71bf 86b0 8348 029a 99bf
000000f0: c1c6 2896 acc2 e8bf 6c4a 4136 70f8 e9bf
00000100: 7241 d78e 8148 dfbf f990 3f9f af54 e0bf
00000110: d319 8c18 f91e c8bf 02e3 8c6b 213a a33f
00000120: 355f e15f 6d3a a33f 8833 5aef 4e3a a33f
00000130: 3c65 ac4e 98ed e83f 3866 3ffc f40f ecbf
00000140: 0000 0000 0000 f03f 0000 0000 0000 0000
00000150: 0000 0000 0000 0000 356a 4ece 83c2 ef3f
00000160: 4f32 8b16 d304 6b3f 484c 854d af3b 713f
00000170: 898e 67d2 ad49 ea3f 40b3 a360 80d3 e8bf
00000180: 228d 0af2 4f80 e73f 4564 de97 4e88 e73f
00000190: d596 f25c 401a c2bf 7739 ac61 b14e a53f
000001a0: c107 bda1 58dd 98bf e813 6076 0c7d e9bf
000001b0: 7790 e608 1eb7 eabf 06ba fa5b 5068 d7bf
000001c0: 238b cde2 b387 d8bf bf4c e68e cb85 b4bf
000001d0: d836 7f2b 8a6b a33f 1f1b d3d7 506c a33f
000001e0: 10b1 2219 fe6b a33f fc09 15f3 401a e73f
000001f0: ec39 3a9f 07c9 eabf 6bf7 ba51 096c ef3f
00000200: 0000 0000 0000 0000 b712 a1c8 d57e 923f
00000210: 7e22 97ca ef8e ee3f 9a79 0d6e 0b52 743f
00000220: eb28 cce8 c186 a43f d525 cb10 6756 e53f
00000230: 9e53 6fb3 c99e e4bf a499 7dc7 9b94 e23f
00000240: b30b 31a4 719c e23f 612a bdd9 47e8 c7bf
00000250: 81d4 a4fb 8ce2 71bf b361 d19a 4b3d 96bf
00000260: b4c7 17bd 6547 edbf dd85 e95f 76a4 eebf
00000270: 6a8e 9dab ae6a d2bf 5210 eef6 f161 d3bf
00000280: 660d 371f ce7a bebf f078 0288 7de9 a33f
00000290: c451 9483 f0ea a33f 4f51 7959 54ea a33f
000002a0: a82a 82a3 742c e23f 8d31 f42d 2f0c e5bf
000002b0: 9ea4 daf0 e858 ed3f 0000 0000 0000 0000
000002c0: 1bdb 2a79 b838 b53f 09b0 feec 31e4 eb3f
000002d0: b1a6 cc9a 9b17 b73f 20b2 7bfa a98d a33f
000002e0: d72b 6b49 eb1e d53f 09e1 9b15 09f7 cfbf
000002f0: 6529 8f9e 9132 cf3f d84f a48d ad50 cf3f
00000300: dfc7 88bd bd52 99bf 731b e1a3 87e2 71bf
00000310: 4690 261a e026 97bf e870 0fd2 bb31 dabf
00000320: 77d6 6e69 d892 dbbf a064 d10a c208 933f
00000330: 9478 7e4a 9b99 8a3f 0a19 dee4 d32a c33f
00000340: 3243 9802 07ab a53f 220f 7eaa 34ac a53f
00000350: 39e2 233d b6ab a53f 4bad fe3a dcd6 cd3f
00000360: 7216 1db9 a964 d8bf 4dcd 5388 cf41 e73f
00000370: 0000 0000 0000 0000 6965 58ef 607c d13f
00000380: 2feb c452 2d4c e63f 555a 7cbb 913f 803f
00000390: cd46 9acc a8e5 d23f f5b4 86cc 09cc ee3f
000003a0: 3cc2 21c4 9404 eabf 07b2 439b 1d36 ec3f
000003b0: ea11 6c08 483e ec3f df65 da69 5354 c73f
000003c0: 724e beb3 86e2 71bf af8e 2a76 58f1 97bf
000003d0: 8ac6 75fa e7d5 a4bf 7f66 6032 2f6b a7bf
000003e0: d221 5450 8715 cd3f 862a 2802 243b cd3f
000003f0: 1cdf a3dd 8e39 c53f bb7b a43e 45ea a63f
00000400: 777e 4af3 5bec a63f f9bc 1448 7aeb a63f
00000410: 2aaf 4d6d 19af eb3f 68c6 d07f e724 edbf
00000420: 0000 0000 0000 f03f 0000 0000 0000 0000
00000430: 0000 0000 0000 0000 99f0 9e6f 9103 de3f
00000440: 8f98 dd77 3460 763f 82cc 40df 76d1 e03f
00000450: 6078 944f 5343 e1bf 3271 649c 1745 de3f
00000460: ef1a e722 90a4 e2bf fe01 95d1 db9d e2bf
00000470: bd7b 4f85 fa5f c33f 5662 9438 8be2 71bf
00000480: 22eb 9f8e 621d 99bf beeb a68d 4633 ecbf
00000490: 5ced d747 b37b edbf d520 2588 fd13 f3bf
000004a0: 45a3 dc09 42ca f3bf 5144 b85a aee4 f9bf
000004b0: 4507 5bf8 2cf1 a23f 88e9 a0fc d1f3 a23f
000004c0: 6996 c13c b3f2 a23f 6e8b 3665 ba5e e4bf
000004d0: eef0 4b9c 8f22 dd3f b96c faff e68c d73f
000004e0: 0000 0000 0000 0000 a1c9 0280 8c39 e43f
000004f0: a452 dc4c b6e9 ef3f 3736 d1f4 2502 643f
00000500: 233f e176 693c 323f d844 be8c 7701 f13f
00000510: 39ea 1a8a 9604 eabf 0ad3 b94a f694 ef3f
00000520: bb9c f48e 489d ef3f 9f2f 9b1e 4e16 d33f
00000530: 1aa2 1363 8fe2 71bf 0556 b021 a9cb 99bf
00000540: 7b0b b81c 31f2 b53f b7ef 435d b40f b43f
00000550: d725 f1d8 21c9 d83f eb4b 0f06 cc31 d93f
00000560: bb7c 62bd da8a d03f 84d7 79b7 d9c6 a63f
00000570: b0ca 9660 fdc0 a63f c176 c765 7fc3 a63f
00000580: f9f2 2f32 9fe3 ee3f 5854 e6b8 9145 eebf
00000590: 0000 0000 0000 f03f 0000 0000 0000 0000
000005a0: 0000 0000 0000 0000 8ed4 d389 b9a4 d73f
000005b0: ef2b 50c2 5c2d e43f 943c 737a 319e 013f
000005c0: 3ccc 1437 c7a9 f03f 2686 2405 9b04 eabf
000005d0: 5fa0 5c29 e1dd ee3f cd5f da49 28e6 ee3f
000005e0: e61f 6a4e ed50 d83f 7a41 e15c 91e2 71bf
000005f0: 172a 7107 e50c 9abf 9954 801a 487d e23f
00000600: 2aa3 be1d a815 e33f e9a5 8b58 42c7 c83f
00000610: 0eb8 f9bc 7ebd c83f 846c 0440 e20b c83f
00000620: 837b 8713 d8c1 a83f fd0e ac4b 4dc1 a83f
00000630: e6b5 7af9 8ac1 a83f 2233 7e2e 5540 ee3f
00000640: 28eb 3a8e 94f1 edbf 0000 0000 0000 f03f
00000650: 0000 0000 0000 0000 0000 0000 0000 0000
00000660: 5d19 8f92 1fd2 d63f 2e71 601f 34d2 313f
00000670: 3e87 34f0 b594 e43f 3271 f8b7 7473 b23f
00000680: 1f7e d656 a204 eabf 3596 f92b d4b1 d23f
00000690: 6d3c ccf4 3048 d23f 779d a2f5 8671 f2bf
000006a0: 47f4 7913 92e2 71bf e9ae b83c 3121 9abf
000006b0: 1e69 6b69 ae6c cfbf 300e 4f25 eb95 d0bf
000006c0: c7ad bd04 c13d e4bf 8ce5 3cb2 0e23 debf
000006d0: 936d dce0 d0b4 ebbf a5fe a7aa 353f a53f
000006e0: a03c 6a81 5e41 a53f 0df4 adef 7440 a53f
000006f0: 78c5 d4bb 553c d63f 6138 1ea4 2f74 dbbf
00000700: f6b1 54ae 9d78 d33f 03a7 d528 b143 e63f
00000710: 0000 0000 0000 0000 4b72 8f64 81fd ef3f
00000720: f5bd 0ed1 ca9a 143f 9ff7 53a0 519c 2d3f
00000730: 9098 90fc 18e9 c03f 15b8 6c69 a604 eabf
00000740: 16e2 dd32 2c7f d63f e187 1e8b dc33 d63f
00000750: c766 1ab7 8b73 f3bf 37a2 a746 92e2 71bf
00000760: aa17 d69f 7826 9abf c308 e389 00ca c7bf
00000770: 6bae 87f0 4a95 d03f 87dc f654 584a f7bf
00000780: d406 7c31 d290 a4bf 432a e556 d5fb ebbf
00000790: ce01 fe94 ab7c a53f 2b4e d3fd 8557 a73f
000007a0: c244 595a 108d a63f 72cf 0b97 f28d d83f
000007b0: a70c d80b 4b20 e2bf a387 e6d0 7923 cd3f
000007c0: 195e c68b 21b7 e83f 0000 0000 0000 0000
000007d0: 75f8 2d78 3f0e cd3f 707d f1ec 4ab7 e83f
000007e0: 4dd3 110c d494 443f 6670 5d74 d3b5 a83f
000007f0: c7b8 08ae a204 eabf 90cc a959 0e8d d33f
